best_geom_mlp.pth (torch, 13469 bytes, 5 tensors)

net.0.weight f4 [64, 6]
00000000: 0143 23be c875 aa3e 2081 a1be 84c0 33bd
00000010: 4106 ed3d fa13 07be c6fe 53be 724e 76be
00000020: 8ddc 3d3e dd54 fdbd 2787 c63c 5b8a 973e
00000030: 3e59 c4bd bb91 093e 2c3c a3bd 8d96 89bc
00000040: 5db1 863d 0f64 13be e9eb 2ebe 45cf 0f3e
00000050: 40b5 143d bc19 a43e 06d0 6d3e 6a53 9fbe
00000060: 0c01 9a3e 9f59 db3d 0cda 27be b75c a3bd
00000070: 387e f63d 089a c2bd 82f8 9e3c 4f6d a63e
00000080: 52e5 7d3e bb4f a33e 0da2 f53c 2542 143e
00000090: fbea 0d3e 7825 adbe 6714 9dbc 9a53 d03d
000000a0: 02b4 cdbe c6d6 5abd 373a d33d bc2d 163e
000000b0: 0ab0 87bc 6436 8d3d 67b2 ab3e 700e 1ebe
000000c0: c846 483e d05f 23be 035d c1be a9b8 223e
000000d0: e8ed b5be 0044 4bbe 4be0 16be beec 853e
000000e0: b80a 8c3e dbb9 a2be 3a90 ce3d 8825 823e
000000f0: 98a6 0cbe 0dc1 9f3d 93d7 6ebe fd4d 913e
00000100: 68a0 cdbe 5bcf 31bd 9962 06be 1175 983e
00000110: 87b5 fd3d d978 0b3c 5145 0e3e e293 abbe
00000120: a517 b1be 9290 763e 6e43 923e 3e12 5b3e
00000130: ed54 f73d 0fc3 4ebe 2722 8dbe df5f a73e
00000140: 8aad cebe 27c2 bebc 9449 833c bd98 c63e
00000150: 658e acbc c4a2 af3d 726b b73d 72ec f8bb
00000160: 3a67 9ebd ecf9 3fbe 375b ba3e d310 803e
00000170: cc10 c03e e504 993e 93f3 203e 86c7 8cbd
00000180: bf3b 5cbd ef4c 62be dda8 813e acc8 443e
00000190: e124 453e 44ab 573e e457 93be cc3d 993e
000001a0: 4ece 843e d2af 8d3e 8fe8 fcbc 31bf 0dbe
000001b0: c3e1 8a3d b2dd 3e3e 0355 213e a500 b3be
000001c0: f796 5dbe a4a5 dabc a376 89be dce0 113e
000001d0: 2216 c2bd 1046 b93e d377 32be 3db2 05bd
000001e0: 0c59 45be 051c 03be 94d3 47be 3466 813d
000001f0: db4c bd3e 0814 2d3e dedc 9e3d 2f65 8e3e
00000200: 1899 0f3e 91c7 03be 8ba7 93be 9141 bbbd
00000210: 5549 3abe ad20 e23c bd0b 67be 28ba ccbe
00000220: 23a9 d43d 4440 c63e 11eb 4abb d214 543a
00000230: 2e9c 843c 2001 8e3e 2de6 7b3e 7a1d 9bbd
00000240: c0ef aa3e 9591 46be 0891 91be c6dd 0b3d
00000250: 4bfb 35be 64dd 853e bd2c cebd 11f3 6cbc
00000260: ab35 5fbe a899 6cbd df1f a6be 8f11 433e
00000270: f498 2c3e 3800 00be 2100 033e 0837 cbbd
00000280: ad33 60be 6a6a cebe e964 d13d 99a7 9b3d
00000290: 2308 b0be 7f7c a2be 9cc8 5a3e 78ee 3e3e
000002a0: bb2f 0e3e 07bb f13c c107 80be 527d acbe
000002b0: 2ca2 993e 80c1 b7be e3b7 833d 2416 9b3e
000002c0: 9f98 9b3e 7411 413e 9655 fc3c da9a 853e
000002d0: 88c0 a13e ff4e 723e 3c89 bc3d 8036 b53e
000002e0: cb09 7cbe 82a8 19be 570a 5cba 4cb2 ca3c
000002f0: 4cbf 3bbd a15f 0e3e f1c6 82be bcb5 70be
00000300: 3c19 ab3e a53d 793d 3491 c4bd ee79 53bd
00000310: 3a2f 323d e7b4 b7be df29 26be 5264 2abe
00000320: 9c0b 4c3e 3c53 bebe 2a29 50bd 336b 2bbd
00000330: a8fe b43d 3901 cebd 459a 5dbe 4eb0 d6bb
00000340: 3644 bcbe 0f0b 373e 7c5c d5be 1468 593e
00000350: b2e1 7fbe 95ae 653e 3aa3 2dbe 2935 ba3e
00000360: 7d15 f33d 2fc2 90be f040 83be 5f93 a93e
00000370: 9c8d ae3e fd42 a7bd 0481 903e e476 5c3e
00000380: b6a4 c2be 5071 113e c3fc b73e aabb 74be
00000390: 9c3d 623e 0f99 adbe 35a7 123e a1d3 0a3b
000003a0: b52b c1be f4df 573e 0b07 94be a361 9e3e
000003b0: ca17 8cbe eed1 e5be be67 5a3e 7359 91be
000003c0: 3796 69bd 3bf1 d43d 8b95 f5bd 156f 923e
000003d0: ffa6 01be 69a0 ba3e 5528 c23d a842 773e
000003e0: 0301 00be b2c3 2bbe c5a7 c13e 0254 a0bd
000003f0: 4d30 a73e 279b 7f3e 6e8f 033e 8f11 c8bd
-0.15943529 0.33292985 -0.31543827 -0.04388477 0.115734585 -0.13191214 -0.20702657 -0.24053362
0.18541165 -0.12369702 0.024234368 0.29597744 -0.09587334 0.13434498 -0.07970461 -0.016795421
0.06576798 -0.14393638 -0.1708218 0.14043911 0.036305666 0.32050884 0.23223886 -0.31118327
0.30078924 0.10710453 -0.16391772 -0.07976668 0.12035793 -0.095020354 0.019405607 0.3250527
0.2479451 0.31896767 0.029984498 0.14478357 0.13859169 -0.3381765 -0.019174768 0.10172196
-0.40176398 -0.05342748 0.10313838 0.14665884 -0.016563434 0.0689514 0.33534548 -0.15435195
0.19558251 -0.15954518 -0.37766275 0.15890755 -0.3553307 -0.19850159 -0.14733998 0.26157182
0.27351928 -0.3178242 0.10086103 0.2541926 -0.13735425 0.078004934 -0.23324423 0.28379813
-0.40161443 -0.04341064 -0.1312355 0.29776815 0.12388139 0.008512699 0.1389363 -0.33511263
-0.34588352 0.24078587 0.2856707 0.21393678 0.12076745 -0.20191596 -0.2756512 0.3269033
-0.40366775 -0.023285938 0.016026296 0.38788405 -0.021063993 0.08575967 0.089560404 -0.007596546
-0.07734533 -0.18747681 0.36397716 0.25012836 0.37512815 0.29886547 0.15717916 -0.068739936
-0.053767916 -0.2209966 0.25324145 0.19217175 0.1925235 0.21061426 -0.28777993 0.2992996
0.25938648 0.27673203 -0.030872611 -0.13842465 0.06781342 0.18639258 0.15755086 -0.3496143
-0.2163962 -0.026690312 -0.26848325 0.14245933 -0.09476878 0.36186266 -0.17428522 -0.032640684
-0.1927225 -0.12803657 -0.19514304 0.06318322 0.369727 0.16902173 0.07756971 0.27811572
0.14023244 -0.12869097 -0.28838763 -0.09143365 -0.18192036 0.027603472 -0.22563072 -0.39985776
0.10383823 0.38720906 -0.0030962864 0.00080902607 0.016187754 0.27735233 0.24599524 -0.075739816
0.3338604 -0.19391473 -0.28430963 0.034147047 -0.17771642 0.2614547 -0.10067127 -0.014462248
-0.21797816 -0.057763726 -0.3244619 0.19049667 0.16855222 -0.12500083 0.12793018 -0.09922606
-0.21894713 -0.40315562 0.10224325 0.07600326 -0.34381208 -0.31735608 0.21365589 0.18645656
0.13885395 0.029508127 -0.25005916 -0.33689362 0.3000654 -0.35889816 0.06431558 0.3029033
0.30389878 0.18854314 0.03080253 0.26094705 0.31592202 0.23662947 0.09205863 0.35393143
-0.2461311 -0.15005687 -0.0008393875 0.024743222 -0.04583673 0.13903667 -0.25542405 -0.23506826
0.3341769 0.060849804 -0.09598008 -0.051629953 0.04350207 -0.35880205 -0.1622691 -0.16639832
0.19926304 -0.37172878 -0.050820507 -0.04185028 0.08837634 -0.10058827 -0.2164088 -0.006551779
-0.3677079 0.17875312 -0.41672122 0.21231109 -0.2498844 0.22429879 -0.16956797 0.36368683
0.11869333 -0.2827315 -0.2563548 0.33120248 0.34092414 -0.08167074 0.2822343 0.21529728
-0.3801629 0.14203382 0.3593503 -0.23899713 0.22093815 -0.33905837 0.14321597 0.002118327
-0.37728658 0.21081525 -0.28911623 0.30933866 -0.273619 -0.44886726 0.21328637 -0.28388557
-0.05702802 0.103975736 -0.11991414 0.28600374 -0.1266136 0.36450508 0.09480349 0.24146521
-0.12500386 -0.1677387 0.3782331 -0.07828523 0.32654038 0.2496153 0.12847683 -0.09768974

net.0.bias f4 [64]
00000000: ea81 30be 124d ca3e 167b a33e a946 3abe
00000010: 1b82 063e f5c0 443e 0a57 223e 8c9a 90be
00000020: 5557 c53e bf47 8bbe f29c 4f3d 3b08 ad3e
00000030: a8e0 283e dec5 91be 2ebe b2be bdce 083e
00000040: d40a 413d 0536 5d3e 3c26 293e d945 fcbd
00000050: 06d1 bebd 9985 8dbe a9b7 90bd ed06 91be
00000060: 9fd6 dcbe acc7 9f3e 4eb4 813d 2903 813e
00000070: 2a56 dc3c 1988 76bd 267b 20be ce45 bbbe
00000080: 3a92 903e 1859 09be bc8d 873e 188c 093c
00000090: 7f7e 423d 5788 403e 331d bd3e e83d d63d
000000a0: 4e4b 50be 5f13 84be 5aef 623e e3f2 933e
000000b0: bd0e b6be acbb cdbe d3bd adbe ba96 65bd
000000c0: e37c 893d 0a13 96be 2555 233e 40d9 513e
000000d0: b862 40be 0a06 85be 7db1 61be e687 dbbe
000000e0: 70cc ab3e 8579 823e cb39 91be 7c0d 523e
000000f0: 6327 8a3e f219 a1be e979 bfbe 9cd8 f83d
-0.17237058 0.39511925 0.31929845 -0.18191017 0.13135569 0.19214232 0.15853515 -0.2824291
0.38543192 -0.27203175 0.050686784 0.33795342 0.1649195 -0.28471273 -0.3491072 0.13360114
0.047129467 0.21602638 0.16518492 -0.1231801 -0.09317212 -0.2764099 -0.070662804 -0.28325596
-0.43132493 0.31207025 0.063332185 0.25197724 0.026896555 -0.060188387 -0.15671977 -0.36576694
0.28236562 -0.13412893 0.26475322 0.008395217 0.047483917 0.1880201 0.3693634 0.104610264
-0.20341226 -0.2579603 0.22161618 0.28896245 -0.3555812 -0.40182245 -0.33933887 -0.056051947
0.067132734 -0.293114 0.15950449 0.2049303 -0.18787658 -0.2598117 -0.22040363 -0.4287712
0.3355441 0.25483337 -0.28364405 0.20512956 0.26983175 -0.31465107 -0.37397698 0.1215069

net.3.weight f4 [32, 64]
00000000: 3239 5e3d 4db8 23bd 77b0 b13d c823 cfbd
00000010: a110 6abd 2d7a ce3b 16a8 13bc e2f4 a2bd
00000020: 1948 3c3d d564 8fbd 3581 823d 7fe4 a4bd
00000030: e8c6 be3d ce9c dbbd fe7c c0bd fe63 24bc
00000040: c9f8 dc3d f965 873c 7ac3 54ba 77c6 de3b
00000050: 6a27 963d 19e9 0a3d df59 8bbd 0da0 3c3d
00000060: a195 99bd 08e4 913d f9fc a9bd 0a5b 4cbd
00000070: be8c cf3d 5bf7 96bd 47d7 063d 4e06 8bbd
00000080: fbbb cc3d 82da af3d 17b1 b23d a79e e8bb
00000090: e6ce 0d3d bca2 1a3d 0eda c4bc 5a90 0b3d
000000a0: 2a38 563d 9eb2 7f3d e07a 863d 008d 203c
000000b0: 30fb 773c 0ed4 473d 7b6c b2bc d288 b13d
000000c0: c5b4 0a3d 8b6e 933d c8c2 6ebd b429 fd3d
000000d0: ddfb 88bd 1bc2 f13d 03e9 32bd 688f 363d
000000e0: 245c 913d 9fb1 b73d 36e2 163d 16e1 85bd
000000f0: 4b98 c7bd 3636 e63c 925a c2bd 1338 bc3d
00000100: 66d7 ac3d f004 873d 913c 703d b63e 28bd
00000110: a75a c1bb 4dfc c5bd 971b 023e 9d02 733d
00000120: 3578 da3a c4ab fe3c 8039 cabd 4e1a 89bd
00000130: 0363 a3bd a653 ddbd 0495 803d 7441 bb3d
00000140: f7aa f53c 25dd 713d 8951 053d 2758 883d
00000150: 17ee 6e3d d02b 82bd 681c 493c af84 e8bc
00000160: fdad 06bd cca8 8dbc 08dd 00be 52e4 67bd
00000170: ab5c 05be 0188 9dbd 42f0 b43d 4d55 08be
00000180: 9c8f bd3c 9db9 bebd f9dd c83d 7aba 9cbc
00000190: fbe3 953c 4306 18be 3777 e13d 2dd2 2a3d
000001a0: eb1d 613c 7410 f83d ea14 86bd 06fd 193d
000001b0: f25f 2fbd 3774 c3bc c166 dcbd e860 26bd
000001c0: 1492 8fbc 8cb6 8abd d25b 8dbd d302 433c
000001d0: 3e92 f5bd c5c0 d53c 6209 ccbb 44a9 dd3d
000001e0: 5389 4abd 1191 b5bd f73b 103d 3a8e 6ebd
000001f0: 3d5a a43d 06b5 0bbd daa4 af39 3153 563d
00000200: 87a9 303d b88c c4bd fb0c d7bd 707d 9a3d
00000210: 15c5 e43d 4b2d fb3c 6e2b b5bd 4069 f1bd
00000220: fe4b 71bb 0c15 d93d ebc0 f53d fd86 77bd
00000230: 8446 973c a932 e73d 619f 933d 2ad0 813d
00000240: 799b b9bd 75cf 0ebe c3ea 7d3d 3c95 05bd
00000250: 4c6d 903c dcaf e43d ac0a 0fbd 72cb ddbd
00000260: 180b 663d dcfd bfbd 9e29 babd 3c90 ca3d
00000270: fc1a f73d ea06 a6bd c34b e33d 96ad 0b3d
00000280: b953 e43d d16f a83c 6664 863d 9cff b33b
00000290: deba 953d 0aee 2e3d 9ff6 0dbd 57a2 48bc
000002a0: e756 a33c 1cd1 503c bbf7 05be 97fe 88bc
000002b0: 36f6 b5bd 2ab9 703d 9200 ee3c c2d3 8b3d
000002c0: 5bb8 aebc 1a2d 0f3d f253 423d 89c3 17bd
000002d0: a88e e1bd abab 50bc 36dd 14bd 8a97 10be
000002e0: 3af4 93bd 1068 8abc d7f3 773c c33c d33d
000002f0: f6df ac3d 84b7 c63d 976c dd3d c38e a7bd
00000300: 8852 5b3d c7ba acbd d686 3d3d 4150 93bc
00000310: 57f3 92bc 3dc6 ba3c 26a4 933d 8297 e53c
00000320: bd68 f63d 24e7 ccbd 8963 813d 7edd f8bd
00000330: b5ed 6fbd fedd d3bd e21e 873b c713 50bd
00000340: 030b 313d 5a1c ce3d 0c61 2ebc 5911 fbbd
00000350: 1373 2fbd dc1c 813d 25c3 55bd e29d 8a3d
00000360: 71f2 b73c b624 06bd bcbf b23d e686 03bd
00000370: 1ea1 cebd 2d13 f2bc ed53 a93d 9eee 08bd
00000380: ab6b eebd 12a9 a8bd 4916 db3d fa03 0d3d
00000390: d341 053e 2be6 04bd 7916 893d dbe0 d0bc
000003a0: 88d6 e2bb 71d8 cc3c 4503 9dbd 7a5b c03d
000003b0: dd78 a63d 8f1a 6bbb c842 8abd 67da a1bb
000003c0: 2a3f 9abd 31e5 a1bd 7b2c 783d 270f 34bd
000003d0: 6b5d 4abc def8 d9bc 5408 97bd 29eb 0cbe
000003e0: 862a eebd 337d c2bd cae3 833c 6cb2 aa3d
000003f0: 2deb a5bb ea2a acbd 591a f3bd 9483 423d
0.054253764 -0.039970685 0.08676236 -0.101142466 -0.057144765 0.0063011856 -0.009012243 -0.07956864
0.045967195 -0.07001654 0.063723005 -0.08051395 0.09315282 -0.107232675 -0.0939884 -0.010033606
0.107896395 0.016528117 -0.00081162865 0.006798561 0.073317364 0.033913705 -0.06804251 0.046051074
-0.074992426 0.07123572 -0.08300204 -0.04989151 0.10134266 -0.07371398 0.03292015 -0.06788312
0.09996792 0.08586599 0.087251835 -0.007098991 0.03462114 0.03775285 -0.024029758 0.03407321
0.052299656 0.062426202 0.06566405 0.009799242 0.015135571 0.048786215 -0.021780243 0.086686745
0.0338638 0.07198819 -0.058291227 0.1236147 -0.06688664 0.11804601 -0.04367925 0.044570357
0.070976526 0.089694254 0.036836825 -0.06537072 -0.097458445 0.028102022 -0.09489931 0.09190383
0.084395215 0.06592739 0.05865151 -0.04107543 -0.005900699 -0.09667263 0.12705837 0.059328664
0.0016667905 0.031087764 -0.098742485 -0.0669447 -0.07977869 -0.1080697 0.062784225 0.091433436
0.029988749 0.05904879 0.03254846 0.06657439 0.05833253 -0.06356013 0.012274839 -0.028383581
-0.032880772 -0.017292403 -0.12584317 -0.056614228 -0.13023631 -0.07691956 0.08834888 -0.1331379
0.023139767 -0.09312747 0.09807963 -0.019131888 0.018297186 -0.14846139 0.110090666 0.041704345
0.013740043 0.12112513 -0.06546958 0.037594818 -0.04281611 -0.023859126 -0.10761786 -0.04061976
-0.01752571 -0.06773099 -0.06902279 0.011902529 -0.11990784 0.026092896 -0.0062267045 0.108233005
-0.04944737 -0.0886556 0.035213437 -0.058241107 0.08025024 -0.034108184 0.00033501425 0.05232543
0.043130424 -0.095971525 -0.10500523 0.075434566 0.11170403 0.030661246 -0.08846174 -0.11787653
-0.0036818977 0.105997175 0.11999687 -0.06043147 0.018466242 0.112889595 0.072081335 0.06338532
-0.09062857 -0.13946326 0.061991464 -0.032613024 0.017630242 0.11166355 -0.034922287 -0.1082982
0.056162924 -0.09374592 -0.09089969 0.09890792 0.12065694 -0.081067875 0.11098435 0.03410109
0.11148781 0.02056113 0.06562118 0.0054931175 0.07311033 0.04270748 -0.034659024 -0.012245736
0.0199389 0.012745168 -0.13082783 -0.01672296 -0.08884852 0.058770336 0.029053006 0.06827499
-0.021328142 0.03495512 0.047443338 -0.03705171 -0.11013538 -0.012736241 -0.036343776 -0.14120308
-0.07224317 -0.016895324 0.01513382 0.10314324 0.08441155 0.097029716 0.108117275 -0.081815265
0.053545505 -0.084340625 0.046271168 -0.017982604 -0.0179383 0.022799606 0.07209043 0.028026346
0.12031696 -0.10005024 0.06317813 -0.12151621 -0.058576304 -0.10345076 0.0041235546 -0.05080011
0.043223392 0.100640014 -0.010643255 -0.12259168 -0.042834353 0.063043326 -0.052188057 0.06768395
0.022454472 -0.032749854 0.08727977 -0.03211107 -0.100893244 -0.02955016 0.08267961 -0.033430688
-0.1164163 -0.082353726 0.1069761 0.03442762 0.13013391 -0.032446068 0.066937394 -0.025497844
-0.006922547 0.025005551 -0.07666639 0.09392448 0.081285216 -0.0035873984 -0.06751019 -0.0049393657
-0.07531579 -0.07905043 0.060589295 -0.043959763 -0.012351374 -0.026607927 -0.07374635 -0.13761581
-0.116292045 -0.09496536 0.01609983 0.083348125 -0.0050634355 -0.08406623 -0.1187026 0.047488764

net.3.bias f4 [32]
00000000: ca46 06be 40ea dbbc 7e6e d5bd fe57 81bd
00000010: 9b3b 15be fd7e 24bd f85f 14bd 3839 eabc
00000020: 4219 5cbd 99c4 54bd a183 afbd 402a 0ebe
00000030: 3b97 17be 37ac 48bc a484 00be 2ce5 453d
00000040: d119 2fbd c302 a5bc ab6c fabd 5886 2fbd
00000050: 90f9 9dbd a7e0 a83d 9bc3 54bd a135 dbbd
00000060: 66a1 44bd 3442 343d b104 7f3c a09e a73d
00000070: 7477 cc3d 9d8b aebd 61de cb3c d997 c3bd
-0.13112941 -0.026845098 -0.10421465 -0.06315611 -0.14573519 -0.040160168 -0.036224335 -0.028591737
-0.053735025 -0.051945303 -0.08570028 -0.13883305 -0.14803784 -0.0122480905 -0.12550598 0.04831426
-0.04274923 -0.020142918 -0.12227758 -0.04285273 -0.07713616 0.08245974 -0.051944356 -0.10703588
-0.048005484 0.04400845 0.015565083 0.08184552 0.099837214 -0.08522723 0.024886312 -0.09550447

net.5.weight f4 [1, 32]
00000000: 03a7 5abd 2b67 173d 2640 cbbc 1f80 85bd
00000010: 9daa 753d c5ab 4bbb 5133 5e3d 76f4 c9bd
00000020: 930b 34bd 1662 87bd 2e1b 10bd a7b0 c13c
00000030: f4ba a03d e277 5f3d 2f48 a63d 85f1 cebd
00000040: de8c b23d 879f 7d3d 51ff ae3d 9464 81ba
00000050: 6ebe de3d a684 023d 0453 233d 8171 5ebb
00000060: 9fb7 bcbd 0272 8f3d e48e 233d 283c 683d
00000070: 1ee3 34bd 10fc b3bd 5ce1 8abc 9470 dc3d
-0.05338193 0.036963623 -0.024810862 -0.06518578 0.059977163 -0.0031077724 0.054248158 -0.0986108
-0.04395635 -0.06610505 -0.03518217 0.023643805 0.078481585 0.05455769 0.08119237 -0.1010466
0.087182745 0.061919715 0.085447915 -0.0009871894 0.10876165 0.031864785 0.03987409 -0.0033942165
-0.092147104 0.07004167 0.039931193 0.056697994 -0.04416191 -0.087883115 -0.016953163 0.1076366
