run_mlp/best_geom_mlp.pth (torch, 13469 bytes, 5 tensors)

net.0.weight f4 [64, 6]
0.015429228 -0.2079457 -0.09876958 0.26508218 -0.5142667 -0.054508265 0.31335777 -0.18260145
-0.2251877 0.31624377 0.40394405 0.33152905 -0.12933952 -0.48859408 -0.29424408 0.18540268
0.0029714657 0.37732705 0.20688747 0.12094209 -0.31077355 -0.41767973 -0.08199401 0.2883052
-0.34447125 0.00052790035 -0.013699386 0.07923262 0.1293854 0.19722603 0.16457827 -0.10472026
-0.104443714 0.03510103 -0.07959111 -0.40326056 0.037443943 0.22753356 -0.37719396 -0.19053458
-0.3831273 0.17514032 0.21708182 -0.4151447 -0.32773796 -0.14984204 -0.46574304 0.27376193
0.19216181 0.40925294 0.4206726 -0.46549347 -0.03358373 0.094192155 -0.060581077 0.3578359
0.39772296 0.114949666 0.29813 -0.11239114 -0.36339352 0.03623041 0.36490935 -0.3018908
0.43739748 -0.009955967 0.29308283 0.12264799 -0.3741016 -0.36469477 0.50360477 0.27209508
-0.15235576 0.29575667 -0.21254462 0.38141763 0.5831681 -0.24597044 0.018550918 0.24373999
-0.13489966 0.36011714 0.35352805 -0.16325577 0.30110928 -0.20249681 0.23898964 0.40773258
-0.3150398 -0.33117655 -0.17613408 -0.36024725 -0.25230622 -0.09719283 -0.28707585 0.005457827
-0.20860198 -0.268636 -0.20722698 0.08311319 0.08498338 0.12636909 0.19809656 0.45777407
0.13911502 -0.06396909 0.3319254 -0.059600588 0.3286922 -0.49861434 -0.4157301 -0.049923137
-0.095495224 0.45627356 0.06345836 -0.08230953 0.32900715 -0.3942368 -0.38643512 -0.0038790263
-0.54363215 -0.041589167 0.09555426 -0.26022664 -0.11486155 0.10702627 -0.103942566 0.4255631
-0.25363016 -0.16748263 -0.070552014 0.3142429 -0.5703623 -0.044337913 -0.029337617 0.13546719
-0.028829636 0.2509052 0.018687263 -0.21970953 0.17013107 -0.052373998 0.43168098 -0.27000135
0.141239 0.32208854 -0.31203768 0.094795465 -0.30652192 -0.4247529 -0.39051905 0.35071787
-0.07180158 -0.050121292 -0.34781954 0.18620938 0.27087235 0.14860854 -0.030507248 -0.03189134
0.11421679 0.29996407 0.3482579 -0.20213817 0.10431001 0.1004462 -0.017093122 0.10156767
-0.20525695 -0.10986849 0.20726521 0.013217492 -0.39533666 -0.345873 0.08925768 -0.12074622
-0.4290369 -0.07902263 -0.19669421 0.4382012 0.056207385 0.0024555433 -0.1425609 0.20847893
-0.32030314 0.3722285 0.26706797 0.23315121 0.333869 -0.11677341 -0.3242525 -0.22941245
0.15807459 0.18040588 0.28521892 -0.14062965 0.04400918 0.1559848 0.072368264 0.40614054
-0.22315328 -0.014669164 -0.45639208 0.15352334 -0.4012497 -0.0718732 0.03101739 0.062913924
0.13305964 0.43445188 -0.12655379 0.3426751 0.3325849 0.021890499 0.4103861 -0.28369108
0.4065508 0.020777438 0.310458 -0.365992 0.38824564 -0.10816232 -0.4069081 0.0691337
-0.396423 -0.33054334 -0.32063466 0.18149759 0.08197233 0.2074423 -0.072908804 0.022946117
-0.23863049 -0.18704203 0.05483702 0.22318983 0.09502155 -0.21601982 0.42938018 0.065326
0.05277774 -0.41540125 0.16003476 -0.14412202 -0.18024878 -0.46979994 -0.20213744 0.013643977
-0.30408096 -0.04395574 -0.036016047 -0.11372482 -0.47051075 0.13302834 -0.19764228 0.3754385
00000000: dfca 7c3c b8ef 54be b547 cabd dab8 873e
00000010: fca6 03bf 0f44 5fbd 6e70 a03e e0fb 3abe
00000020: 9b97 66be b4ea a13e c1d1 ce3e 2dbe a93e
00000030: 9471 04be 0129 fabe 29a7 96be 33da 3d3e
00000040: ecbc 423b 0331 c13e 4fda 533e 7db0 f73d
00000050: b61d 9fbe 1eda d5be 7aec a7bd bd9c 933e
00000060: 895e b0be cb62 0a3a 6473 60bc b644 a23d
00000070: 9b7d 043e 9ff5 493e 3587 283e 9377 d6bd
00000080: 96e6 d5bd 19c6 0f3d aa00 a3bd 2b78 cebe
00000090: d25e 193d 8ffe 683e 911f c1be 7f1b 43be
000000a0: 4329 c4be fc57 333e b24a 5e3e d98d d4be
000000b0: 45cd a7be 3170 19be df75 eebe 862a 8c3e
000000c0: 11c6 443e 9a89 d13e 6662 d73e 2955 eebe
000000d0: 188f 09bd d1e7 c03d dd23 78bd 4436 b73e
000000e0: 58a2 cb3e bb6a eb3d 7fa4 983e 532d e6bd
000000f0: b70e babe 5766 143d 66d5 ba3e 6e91 9abe
00000100: 90f2 df3e 5a1e 23bc f40e 963e df2e fb3d
00000110: 3f8a bfbe 46b9 babe 3eec 003f 0c50 8b3e
00000120: 2603 1cbe 6b6d 973e 4ca5 59be 2c49 c33e
00000130: 814a 153f addf 7bbe 18f8 973c fa96 793e
00000140: 2323 0abe 4661 b83e a101 b53e 852c 27be
00000150: ff2a 9a3e 535b 4fbe b3b9 743e 53c2 d03e
00000160: e64c a1be f98f a9be 7e5c 34be 5472 b8be
00000170: 482e 81be 090d c7bd 9bfb 92be 92d7 b23b
00000180: c29b 55be a88a 89be 4f33 54be 4037 aa3d
00000190: c40b ae3d e666 013e d3d9 4a3e 5d61 ea3e
000001a0: 2b74 0e3e 3a02 83bd 20f2 a93e bf1f 74bd
000001b0: 584a a83e 614a ffbe 93da d4be 347c 4cbd
000001c0: 0093 c3bd b09c e93e 75f6 813d e691 a8bd
000001d0: a073 a83e 68d9 c9be d3da c5be 4337 7ebb
000001e0: 7a2b 0bbf 6759 2abd f4b1 c33d 6d3c 85be
000001f0: 883c ebbd 9730 db3d d7df d4bd 68e3 d93e
00000200: d0db 81be 9180 2bbe 937d 90bd 72e4 a03e
00000210: 4403 12bf ac9b 35bd 7155 f0bc e9b7 0a3e
00000220: 212c ecbc a576 803e 0816 993c 89fb 60be
00000230: d736 2e3e 1e86 56bd 4a05 dd3e 9e3d 8abe
00000240: f5a0 103e cae8 a43e 67c3 9fbe 2024 c23d
00000250: 71f0 9cbe 3679 d9be 1df2 c7be 4b91 b33e
00000260: b50c 93bd fc4b 4dbd 6715 b2be acad 3e3e
00000270: c8af 8a3e d62c 183e 56ea f9bc 7ea0 02bd
00000280: 7eea e93d e494 993e dc4e b23e 4ffd 4ebe
00000290: 7da0 d53d bdb6 cd3d e006 8cbc b602 d03d
000002a0: e12e 52be bb02 e1bd 553d 543e 2e8e 583c
000002b0: 9169 cabe 4416 b1be bbcc b63d cb49 f7bd
000002c0: b9aa dbbe 9ed6 a1bd 356a 49be e85b e03e
000002d0: b739 663d 2eed 203b 7cfb 11be 807b 553e
000002e0: c6fe a3be bc94 be3e 22bd 883e 31bf 6e3e
000002f0: e1f0 aa3e e626 efbd 6c04 a6be 19eb 6abe
00000300: 4ede 213e 52bc 383e 3708 923e 3801 10be
00000310: f842 343d 7bba 1f3e d035 943d a7f1 cf3e
00000320: 4b82 64be ef56 70bc 39ac e9be 3935 1d3e
00000330: 9a70 cdbe 4232 93bd 2e18 fe3c 04d9 803d
00000340: c940 083e 7a70 de3e 5197 01be 1c73 af3e
00000350: 9148 aa3e b453 b33c 201e d23e f53f 91be
00000360: 6d27 d03e 7235 aa3c 5af4 9e3e 4e63 bbbe
00000370: 22c8 c63e 3584 ddbd 4256 d0be f895 8d3d
00000380: f5f7 cabe fa3c a9be 3a2a a4be 81da 393e
00000390: 1ce1 a73d c16b 543e 3651 95bd 7ff9 bb3c
000003a0: 8d5b 74be f287 3fbe c89c 603d e08b 643e
000003b0: a99a c23d 4d34 5dbe b8d7 db3e a3c9 853d
000003c0: 792d 583d 79af d4be 27e0 233e b994 13be
000003d0: 2393 38be 9e89 f0be 1efd 4ebe fd8a 5f3c
000003e0: 80b0 9bbe ef0a 34bd 9085 13bd 8fe8 e8bd
000003f0: c9e6 f0be 9538 083e bd62 4abe 7a39 c03e

net.0.bias f4 [64]
0.06001487 -0.445049 0.014822086 -0.25378573 -0.057587728 -0.26598987 0.16857508 -0.19669968
-0.045867972 -0.15308784 0.027112372 0.23385572 -0.39732137 0.16749129 0.31292138 -0.0650521
0.4333883 0.2575487 -0.23401287 -0.16059817 -0.15776269 0.31166732 0.07695226 -0.57739663
0.21670173 0.19411679 -0.2052867 -0.025803352 0.39759335 -0.3133981 -0.26625672 0.064663574
0.25888726 -0.26043826 -0.27666935 0.062715575 -0.49946725 -0.5170128 -0.400987 -0.26550463
-0.30840266 0.3285693 0.23724513 0.27472654 -0.036483854 -0.1525519 -0.33519813 -0.08782591
0.20400558 0.057131067 0.2206058 -0.07897275 -0.03147414 -0.329194 -0.040989894 0.1777764
0.13273004 0.23502418 0.305968 0.074719526 -0.3818865 0.21701996 -0.05882487 0.117762715
00000000: 27d2 753d 76dd e3be 56d8 723c 34f0 81be
00000010: 1ce1 6bbd d32f 88be f29e 2c3e a46b 49be
00000020: 0ee0 3bbd 0fc3 1cbe c41a de3c e077 6f3e
00000030: b56d cbbe d682 2b3e 3b37 a03e 093a 85bd
00000040: 12e5 dd3e 6cdd 833e 12a1 6fbe d973 24be
00000050: 8b8c 21be dc92 9f3e 2699 9d3d 44d0 13bf
00000060: 0fe7 5d3e 8dc6 463e ad36 52be 8d61 d3bc
00000070: 5b91 cb3e b775 a0be cd52 88be 566e 843d
00000080: df8c 843e 2a58 85be 9ba7 8dbe 0671 803d
00000090: 2cba ffbe f35a 04bf 2b4e cdbe 39f0 87be
000000a0: f4e6 9dbe 3c3a a83e 63f0 723e f5a8 8c3e
000000b0: 1870 15bd 9136 1cbe 179f abbe 12de b3bd
000000c0: d7e6 503e 4402 6a3d 7de6 613e 77bc a1bd
000000d0: 07eb 00bd 1e8c a8be 05e5 27bd 040b 363e
000000e0: 62ea 073e 2eaa 703e d6a7 9c3e 8d06 993d
000000f0: a186 c3be 7b3a 5e3e 59f2 70bd 942d f13d

net.3.weight f4 [32, 64]
0.058600694 0.039253786 -0.018110873 0.01905544 -0.2217851 -0.022173362 -0.041716926 -0.023293268
0.14833409 -0.07244924 -0.036729842 -0.064477876 -0.024622971 -0.017411722 0.18723899 -0.108629525
0.036464304 0.07151188 0.07176452 0.022105101 -0.19718641 -0.11024508 -0.070485905 -0.034394313
0.112497665 0.022070277 0.033030085 0.10721223 -0.06378437 -0.12986457 -0.1161061 0.07435481
0.017707134 0.12514062 -0.100509 -0.22520834 0.03977123 -0.056506675 0.09159146 -0.22741835
-0.21493487 -0.119747624 0.046840977 0.05241709 -0.12289838 0.124521874 0.08249676 -0.03646655
-0.015317611 -0.019288346 -0.31830028 0.077145554 -0.11990378 -0.015654832 0.03254995 -0.19238496
-0.08246246 -0.046647377 -0.08216252 -0.15387571 0.0060161036 -0.14207087 0.10947438 0.09300705
-0.116470255 -0.032124184 -0.20015118 -0.08842825 0.009089395 0.03346874 0.037378307 0.17639518
-0.16546248 0.09083683 -0.19224396 -0.06868637 -0.002524619 0.09641733 -0.006841643 0.1825151
-0.16022487 -0.06606277 0.12789686 0.12655874 -0.046592914 -0.064763956 -0.01567716 -0.0938069
0.16478729 0.014521279 0.07205942 0.09312415 0.06273243 0.061112765 0.022419522 0.040018782
-0.13518682 0.14592427 -0.20359498 0.10168236 -0.007035468 0.051717073 -0.022400536 -0.020017609
0.20340526 0.08342987 -0.09343873 -0.04003836 -0.05974655 -0.075698584 -0.16722594 0.12704678
0.06304901 -0.023010027 0.0083457725 -0.15887302 -0.11296087 -0.19791417 0.025207255 -0.00066606095
0.07141787 0.075926624 0.1303387 -0.062354907 -0.102950335 -0.059146456 -0.05110348 -0.15432402
0.020916967 -0.040378332 -0.043008815 -0.0796894 -0.006200037 0.03634158 -0.004982059 -0.08671761
-0.0675957 0.061281882 0.02235026 -0.056816153 -0.10734241 0.070135355 0.022130316 -0.13250166
0.16927998 -0.013215653 -0.07525172 -0.18210427 0.08526137 0.09590252 0.08659161 0.07811378
0.06022052 -0.061760385 -0.17491932 -0.054132942 0.10557818 -0.08286057 0.023757575 0.045608215
-0.033290226 0.06489405 0.040782694 0.15243335 -0.1884949 -0.16435754 -0.11546627 -0.039604582
-0.078003615 0.020525208 0.08814949 -0.073363215 -0.0927442 -0.09603335 -0.24106963 0.1693233
0.042128652 -0.009374767 -0.003591653 -0.13875659 0.19111837 0.005038584 0.08652664 0.06913505
0.13363533 0.09850159 -0.012240888 0.014912943 -0.0657788 -0.043529183 -0.073043294 -0.023449633
0.17933507 -0.17981984 0.059696354 0.10525518 -0.2038675 0.054757982 -0.062226743 -0.07195383
-0.014492147 0.15987806 -0.06562843 0.06523532 -0.13426888 -0.17499213 0.13185547 0.1132808
-0.06655553 0.007813874 -0.03668836 0.12383865 -0.08567749 -0.00019593384 -0.06315874 0.11797644
-0.1237775 -0.076289944 -0.10640348 0.06454392 0.098573014 0.09173561 0.032605186 0.07506846
0.114682324 0.101470806 -0.091554396 0.04185804 0.1292823 0.04100781 -0.013045315 0.059896976
0.03669779 0.0056197336 0.0323497 0.0999025 -0.040357698 -0.040139843 0.106690034 -0.03723163
-0.1414615 -0.03493549 0.051843364 0.15918559 -0.10010577 -0.01470972 0.093205795 0.007526235
-0.047754932 -0.13726898 0.06262035 0.08708696 0.096956156 -0.123153925 -0.02214581 -0.05170107
00000000: 4807 703d 94c8 203d 415d 94bc 271a 9c3c
00000010: a21b 63be e9a4 b5bc 5edf 2abd 86d1 bebc
00000020: e4e4 173e 4460 94bd 0872 16bd fa0c 84bd
00000030: 1db6 c9bc 07a3 8ebc 94bb 3f3e 2879 debd
00000040: 985b 153d d274 923d 47f9 923d c215 b53c
00000050: 3ceb 49be 2cc8 e1bd ea5a 90bd 0de1 0cbd
00000060: 2d65 e63d bacc b43c 8e4a 073d 1692 db3d
00000070: 61a1 82bd 38fb 04be 09c9 edbd 5647 983d
00000080: 8d0e 913c dd24 003e aad7 cdbd 049d 66be
00000090: 28e7 223d 8b73 67bd 4e94 bb3d 5be0 68be
000000a0: e317 5cbe 3e3e f5bd 53dc 3f3d 4db3 563d
000000b0: 25b2 fbbd 5305 ff3d 10f4 a83d f35d 15bd
000000c0: b8f6 7abc 9802 9ebc 41f8 a2be 7dfe 9d3d
000000d0: 1d90 f5bd 903e 80bc 1953 053d 9000 45be
000000e0: 14e2 a8bd 5211 3fbd d344 a8bd 9891 1dbe
000000f0: bc22 c53b 077b 11be 1b34 e03d 7b7a be3d
00000100: f587 eebd a694 03bd 6ef4 4cbe df19 b5bd
00000110: b0eb 143c 8416 093d ff19 193d f0a0 343e
00000120: ff6e 29be a908 ba3d 9adb 44be 71ab 8cbd
00000130: 1474 25bb 7376 c53d dc2f e0bb 3de5 3a3e
00000140: fd11 24be eb4b 87bd 65f7 023e 9d98 013e
00000150: 36d8 3ebd f7a2 84bd 636d 80bc d51d c0bd
00000160: 00be 283e a9ea 6d3c e493 933d e0b7 be3d
00000170: dc79 803d 6151 7a3d 25a9 b73c bcea 233d
00000180: 6a6e 0abe 2c6d 153e 347b 50be d73e d03d
00000190: c889 e6bb 48d5 533d 5481 b7bc f8fb a3bc
000001a0: 7849 503e 48dd aa3d ce5c bfbd 43ff 23bd
000001b0: ccb8 74bd dc07 9bbd 473d 2bbe 8d18 023e
000001c0: d71f 813d 867f bcbc b5bc 083c 9caf 22be
000001d0: 0758 e7bd 03aa 4abe 727f ce3c 989a 2eba
000001e0: 8843 923d 6b7f 9b3d 8277 053e dc67 7fbd
000001f0: a0d7 d2bd 8e43 72bd e251 51bd 1e07 1ebe
00000200: 0f5a ab3c c063 25bd 032a 30bd 3234 a3bd
00000210: ae29 cbbb e9da 143d 8a40 a3bb 0199 b1bd
00000220: 9d6f 8abd b602 7b3d e417 b73c 0eb8 68bd
00000230: 56d6 dbbd 20a3 8f3d a34a b53c 84ae 07be
00000240: bb57 2d3e 7786 58bc 931d 9abd 8b79 3abe
00000250: 839d ae3d 8a68 c43d f156 b13d 1efa 9f3d
00000260: cba9 763d 75f8 7cbd 0d1e 33be 81ba 5dbd
00000270: 5f39 d83d cdb2 a9bd 3f9f c23c aecf 3a3d
00000280: 555b 08bd 2ce7 843d c10b 273d 7d17 1c3e
00000290: cf04 41be 584d 28be 9479 ecbd 6a38 22bd
000002a0: 5cc0 9fbd 7b24 a83c b887 b43d 743f 96bd
000002b0: acf0 bdbd 22ad c4bd f5da 76be 1663 2d3e
000002c0: 188f 2c3d 9f98 19bc f061 6bbb 3516 0ebe
000002d0: 89b4 433e b51a a53b e134 b13d ad96 8d3d
000002e0: b3d7 083e 34bb c93d 018e 48bc 6b55 743c
000002f0: 09b7 86bd a84b 32bd b997 95bd 7219 c0bc
00000300: 9da3 373e b122 38be 2a84 743d 0790 d73d
00000310: a4c2 50be e849 603d 78e1 7ebd 885c 93bd
00000320: 7870 6dbc 13b7 233e 3368 86bd 189a 853d
00000330: c87d 09be 2331 33be 1f05 073e c4ff e73d
00000340: 444e 88bd c305 003c 8946 16bd 1e9f fd3d
00000350: ae77 afbd 9773 4db9 5f59 81bd a29d f13d
00000360: 0f7f fdbd e73d 9cbd 11ea d9bd 9a2f 843d
00000370: a6e0 c93d e1df bb3d 048d 053d 7ebd 993d
00000380: 91de ea3d edcf cf3d df80 bbbd 5673 2b3d
00000390: 9462 043e cef7 273d 04bc 55bc 8856 753d
000003a0: 6c50 163d be25 b83b 1e81 043d af99 cc3d
000003b0: 1d4e 25bd ad69 24bd 4e80 da3d 3280 18bd
000003c0: 49db 10be 8418 0fbd b559 543d 8c01 233e
000003d0: 4104 cdbd 0a01 71bc aee2 be3d a39e f63b
000003e0: ad9a 43bd 3d90 0cbe 193f 803d a65a b23d
000003f0: f390 c63d 2038 fcbd 216b b5bc 80c4 53bd

net.3.bias f4 [32]
-0.022734543 -0.12766957 0.17513233 0.058210548 -0.20433503 0.0070767105 0.12830229 0.032632273
0.048012532 0.011527683 0.07792906 0.19301046 0.21488844 0.0875818 -0.12671429 0.078113444
0.040878758 -0.10487078 0.0045552626 0.0783247 0.018662687 -0.003546784 0.09982419 -0.06875099
-0.04383175 0.16566907 0.06520025 0.0134213595 0.07094142 -0.020585258 0.063698426 -0.061347965
00000000: cb3d babc d0bb 02be e455 333e 2f6e 6e3d
00000010: 343d 51be c0e3 e73b ad61 033e 6ba9 053d
00000020: caa8 443d 9bde 3c3c 4599 9f3d 89a4 453e
00000030: b70b 5c3e 165e b33d 64c1 01be f1f9 9f3d
00000040: 7c70 273d 7ec6 d6bd 5044 953b b368 a03d
00000050: 7ee2 983c 2971 68bb a070 cc3d 52cd 8cbd
00000060: ec88 33bd 27a5 293e b587 853d 43e5 5b3c
00000070: bc49 913d 6aa2 a8bc 5274 823d 0148 7bbd

net.5.weight f4 [1, 32]
0.24051578 -0.2601336 0.16117603 -0.17214938 -0.33661205 -0.09299955 -0.12779833 -0.11764648
0.19253896 0.3174332 -0.1983181 0.22284274 0.15713257 -0.28396282 0.014565493 -0.12985508
-0.18977009 -0.18252973 -0.11728237 0.16721006 0.20089877 -0.18568116 0.09701746 -0.257915
-0.28344667 0.23763956 0.15794937 -0.11119873 -0.13146892 -0.19164568 0.21643825 -0.21905896
00000000: c549 763e 3b30 85be 540b 253e ed47 30be
00000010: 6a58 acbe 8c76 bebd 91dd 02be a3f0 f0bd
00000020: ef28 453e 9b86 a23e e613 4bbe e330 643e
00000030: 5ce7 203e 9363 91be 1ba4 6e3c bbf8 04be
00000040: 1753 42be 13e9 3abe bd31 f0bd 1d39 2b3e
00000050: 68b8 4d3e 3423 3ebe 17b1 c63d 6f0d 84be
00000060: ec1f 91be c957 733e 7bbd 213e 29bc e3bd
00000070: ca9f 06be c43e 44be fda1 5d3e fe50 60be
